pointpkg/model.onnx (onnx, 9674 bytes, 6 tensors)

StatefulPartitionedCall/sequential_2/dense_8/MatMul/ReadVariableOp:0 f4 [36, 6]
0	0xbe61ff62	-0.22070077
1	0xbe2841e4	-0.16431385
2	0xbe87f4fc	-0.26554096
3	0xbeb46711	-0.35234883
4	0x3e95e137	0.29273388
5	0x3d794a6d	0.060861994
6	0x3cf46a33	0.029835796
7	0xbdab7ba7	-0.08373194
8	0x3e02a186	0.12756929
9	0x3ebba3df	0.3664846
10	0xbbe180a8	-0.006881792
11	0xbcaa0b91	-0.020757468
12	0x3eafce37	0.34337017
13	0xbe052371	-0.13001801
14	0xbd90e208	-0.07074362
15	0x3e5bc38e	0.21461317
16	0x3e80dcb5	0.25168386
17	0x3e01f636	0.12691578
18	0x3daeb2a8	0.0853017
19	0xbe74266b	-0.2384278
20	0x3e2b48d4	0.16727
21	0x3d9c7348	0.07639176
22	0xbdb14748	-0.08656174
23	0xbe9bdf2c	-0.30443704
24	0x3c9caa00	0.019124031
25	0x3e623905	0.22092064
26	0x3e94412b	0.2895597
27	0x3da54319	0.080694385
28	0x3e634566	0.22194442
29	0x3de5baff	0.11217307
30	0x3e99dc15	0.30050722
31	0xbf075cd8	-0.52876043
32	0xbe14db55	-0.14536794
33	0x3d882d3c	0.06649253
34	0xbe41ea03	-0.18936925
35	0xbc74132c	-0.014897149
36	0xbe4730ef	-0.1945226
37	0xbcd29970	-0.02570793
38	0x3eb5f6ed	0.35539952
39	0xbe663077	-0.22479425
40	0xbe374a24	-0.17899376
41	0x3e0c0ac2	0.13675979
42	0x3e590d78	0.21196544
43	0x3e624f40	0.22100544
44	0x3e38e596	0.1805633
45	0x3e31d1fc	0.17365259
46	0x3d3c0ad4	0.045908764
47	0xbe90a78c	-0.28252828
48	0xbc42f83b	-0.011900003
49	0xbe1b866f	-0.15188001
50	0x3f0995af	0.53744024
51	0xbd7fac9a	-0.062420465
52	0xbcf5e9d3	-0.030018723
53	0x3e147b7f	0.14500235
54	0xbe0079d3	-0.12546472
55	0xbe74560c	-0.2386095
56	0xbb837a50	-0.0040123835
57	0x3d6381f7	0.055543866
58	0xbe88f165	-0.2674667
59	0x3e926e34	0.28599703
60	0x3e221fcf	0.15832447
61	0xbda80a3b	-0.08205076
62	0xbe418fa9	-0.18902458
63	0xbea1c920	-0.3159876
64	0x3e27bde9	0.16381039
65	0x3ab1c0f2	0.001356153
66	0x3c8c9c30	0.01716432
67	0x3e2d221a	0.1690754
68	0xbe36bd10	-0.17845559
69	0x3d6b2240	0.05740571
70	0x3e750f1a	0.23931542
71	0x3d9d0dec	0.07668671
72	0x3e079a09	0.13242353
73	0x3e5e2923	0.2169538
74	0xbe3bd62b	-0.18343417
75	0xbe76c9e4	-0.24100453
76	0x3e73a31c	0.2379269
77	0x3edb16c9	0.4279082
78	0xbc10e260	-0.0088430345
79	0xbcd6f568	-0.026240066
80	0xbf96fc86	-1.1795814
81	0xbccc42d9	-0.02493422
82	0xbd43401f	-0.047668573
83	0xbfa2f347	-1.2730492
84	0x3e6561d2	0.22400597
85	0x3eaaf85a	0.33392602
86	0x3dd7cc67	0.105370335
87	0x3e464216	0.19361147
88	0x3ec5da01	0.38642886
89	0xbd1a6adb	-0.03769956
90	0xbe437d6e	-0.19090816
91	0xbe2a88c5	-0.16653736
92	0xbe5ed37c	-0.21760362
93	0x3d12d422	0.035846837
94	0xbe3cb330	-0.1842773
95	0x3eae96cb	0.3409942
96	0x3c7340a2	0.014846953
97	0x3dc73a7a	0.097279504
98	0xbe198f27	-0.14996015
99	0x3db27a3a	0.08714719
100	0x3e6c3727	0.23067914
101	0x3ebf32e9	0.3734353
102	0xbeb2cdb6	-0.3492257
103	0x3c15362b	0.009107153
104	0x3e1d2788	0.15347111
105	0x3e8484fd	0.25882712
106	0x3ec39eaf	0.38207003
107	0xbea9a227	-0.33131525
108	0x3e9ed3f9	0.31021097
109	0x3dc4f6bc	0.09617373
110	0x3e50e42e	0.20399544
111	0x3db6d7f8	0.089279115
112	0xbeab856b	-0.33500227
113	0x3ebd5f2f	0.36986682
114	0xbc72f4a3	-0.014828834
115	0x3ea380c1	0.3193417
116	0xbe7a2e76	-0.24431786
117	0xbe86f0dd	-0.2635564
118	0xbdb08a25	-0.08620099
119	0xbe278c11	-0.16362025
120	0xbdf34890	-0.118790746
121	0xbcc929e0	-0.0245561
122	0x3d75c988	0.06000665
123	0x3c3f8840	0.011690199
124	0xbdd0fbd4	-0.102042824
125	0xbe162adc	-0.14664787
126	0xbeae30fa	-0.3402174
127	0x3e6c85ed	0.23097964
128	0x3e4d47bc	0.20046896
129	0x3db256bc	0.087079495
130	0x3e586506	0.21132287
131	0x3d92726d	0.07150731
132	0x3d5e10e8	0.05421534
133	0xbd9abab0	-0.07555139
134	0x3f02423f	0.50882334
135	0xbeba0875	-0.36334577
136	0xbd889185	-0.06668381
137	0x3ec96fda	0.39343148
138	0xbeb35805	-0.3502809
139	0x3e9678b3	0.2938896
140	0xbeb41c00	-0.35177612
141	0xbe91e774	-0.28496897
142	0x3d19f5ca	0.03758792
143	0x3d99820b	0.07495507
144	0x3e4ccf2a	0.20000902
145	0x3e6f2045	0.23352154
146	0x3e80d9ad	0.25166073
147	0xbe8eb0c5	-0.2786924
148	0xbe2ff7d5	-0.17184384
149	0xbe3be7be	-0.18350121
150	0xb939191f	-0.00017652333
151	0x3cc7cace	0.024388697
152	0xbf590147	-0.84767574
153	0x3a5e8120	0.0008487869
154	0x3c2f6c5e	0.010706989
155	0xbf6a1fee	-0.9145497
156	0xbd889ba4	-0.06670311
157	0xbdd51b63	-0.10405614
158	0xbe26834b	-0.16261022
159	0x3d78962b	0.060690086
160	0xbdd70b7e	-0.10500239
161	0xbdd1be02	-0.10241319
162	0xbe62b712	-0.22140148
163	0xbe71acef	-0.23601125
164	0x3e9834ca	0.29727775
165	0x3e1f09ee	0.15531132
166	0x3e41871c	0.18899196
167	0x3d22c2aa	0.039736427
168	0x3d3e6763	0.046485316
169	0x3d435469	0.04768792
170	0x3e52a219	0.20569648
171	0x3e91ab82	0.28451163
172	0xbe232f9e	-0.15936133
173	0xbd9415e9	-0.072307415
174	0x3d8e2340	0.06940317
175	0xbdef4558	-0.11683148
176	0xbeaa276d	-0.33233204
177	0x3d6c86c0	0.057745695
178	0x3e99b46d	0.30020466
179	0x3e4a8eda	0.19781056
180	0x3bbf1ca9	0.005832274
181	0x3d46fd72	0.048581548
182	0x3f834180	1.0254364
183	0xbbbff41d	-0.005857958
184	0x3cc90a01	0.024540903
185	0x3f9a3e18	1.20502
186	0xbe9fb7e5	-0.31194988
187	0xbe25bc5c	-0.16185135
188	0xbe54f5cc	-0.20796889
189	0xbd89e0f2	-0.06732358
190	0xbe7f1f52	-0.24914292
191	0x3e51bc63	0.2048202
192	0x3ea59d7b	0.3234671
193	0xbe3161ea	-0.17322508
194	0x3effc749	0.4995673
195	0x3ec09936	0.3761689
196	0x3c8e0170	0.01733467
197	0x3eb1f6ba	0.3475855
198	0x3d8effa8	0.06982356
199	0xbe6c3c3a	-0.2306985
200	0xbe238d89	-0.1597196
201	0x3e2e9372	0.17048433
202	0xbe03fdab	-0.12889735
203	0x3e22da9e	0.15903708
204	0x3d733589	0.059377227
205	0x3e1a88bc	0.15091223
206	0xbd7c5261	-0.061602
207	0x3c9979a4	0.01873476
208	0xbeccfb9b	-0.4003571
209	0x3ecf7ce2	0.40524966
210	0xbf19ce93	-0.6008083
211	0x3e2396de	0.1597552
212	0xbd2c1977	-0.042016473
213	0xbebe1001	-0.37121585
214	0x3e295032	0.16534498
215	0xbc940828	-0.018070295

StatefulPartitionedCall/sequential_2/dense_8/BiasAdd/ReadVariableOp:0 f4 [6]
0	0xbd140312	-0.03613574
1	0x3ccc7339	0.024957286
2	0x3f0eaf5f	0.55736345
3	0xbe945e3d	-0.28978148
4	0xbe183eb3	-0.14867668
5	0x3fe20641	1.7658159

StatefulPartitionedCall/sequential_2/dense_7/MatMul/ReadVariableOp:0 f4 [36, 36]
0	0x3bb695ce	0.0055720573
1	0x3dbddae8	0.09270269
2	0xbe570b8e	-0.21000502
3	0x3e12fadb	0.14353506
4	0xbd8719ca	-0.06596716
5	0x3daad4b9	0.08341355
6	0x3d585518	0.052815527
7	0x3d8bfeaf	0.068356864
8	0xbdbca3c8	-0.09210926
9	0xbe0562ef	-0.13026021
10	0xbe9620dc	-0.29321945
11	0x3e24fda6	0.16112384
12	0xbb176a6e	-0.0023104209
13	0x3ccd2818	0.025043532
14	0x3d0f3292	0.034960337
15	0x3d8ae0e7	0.06781178
16	0x3cd02112	0.025406394
17	0x3e6f0c19	0.23344459
18	0xbe1f776d	-0.15572901
19	0xbe692a64	-0.22770077
20	0xbe351a18	-0.17685735
21	0x3d805cf5	0.0626773
22	0x3de77802	0.113021865
23	0x3e403293	0.18769293
24	0xbcaf57eb	-0.021404227
25	0xbfa8a1f4	-1.3174424
26	0x3dcb5bf8	0.09929651
27	0xbcdec1f2	-0.02719209
28	0x3dd42556	0.10358684
29	0xbe26e157	-0.16296898
30	0xbe670f4f	-0.22564434
31	0xbe152400	-0.14564514
32	0x3d8ec42a	0.06971009
33	0xbe7c343b	-0.246293
34	0x3c645247	0.013935632
35	0x3d96d4d3	0.07364812
36	0xbd3f57b8	-0.046714514
37	0xbe69bd49	-0.22826113
38	0x3d754968	0.05988446
39	0xbea1cc20	-0.31601048
40	0x3cca0747	0.024661673
41	0x3cf1301b	0.029441884
42	0xbdb1f4e8	-0.0868929
43	0xbe83e634	-0.2576157
44	0xbd48a796	-0.048987947
45	0x3e59e361	0.21278144
46	0x3e41131f	0.1885495
47	0xbe497291	-0.1967261
48	0x3bb78e1e	0.0056016585
49	0xbd78eee8	-0.060774714
50	0x3ddd8b8b	0.10817631
51	0xbddb55a2	-0.107096925
52	0xbe1413d4	-0.14460689
53	0xbe693956	-0.22775778
54	0xbe60e530	-0.21962428
55	0xbe10b33e	-0.14130875
56	0x3e48f00c	0.1962282
57	0x3dd1bbca	0.10240896
58	0xbbb32368	-0.0054668672
59	0xbe1aec56	-0.15129218
60	0x3c0bfdb8	0.008544378
61	0xbf87e847	-1.061776
62	0xbe343ffb	-0.17602532
63	0x3ca00a9e	0.019536313
64	0xbe10afdc	-0.14129585
65	0xbd3fe90c	-0.04685311
66	0x3b8b9c97	0.0042606103
67	0xbe1977a2	-0.14987043
68	0xbbc96525	-0.0061460906
69	0xbe017141	-0.12640859
70	0x3cd200c6	0.025635134
71	0xbd59ce3b	-0.053175192
72	0x3e0f73c6	0.14009008
73	0xbe4fcacd	-0.20292206
74	0x3e01eba6	0.12687549
75	0xbe95e918	-0.292794
76	0xbc98a465	-0.018633077
77	0xbe1fddcd	-0.15611954
78	0xbcebb200	-0.0287714
79	0xbe60d007	-0.21954356
80	0xbd21a85d	-0.039467204
81	0x3e0e2c39	0.13884057
82	0xbc3dcd70	-0.011584625
83	0xbc0a7380	-0.008450389
84	0x3d505947	0.05086639
85	0xbe1d2785	-0.15347107
86	0xbe924b63	-0.2857314
87	0xbe37390b	-0.17892854
88	0x3c41f76a	0.011838773
89	0xbe05912a	-0.13043657
90	0xbda9597c	-0.08269021
91	0xbea20315	-0.31642976
92	0xbe93cc17	-0.28866646
93	0xbe651ac8	-0.22373497
94	0xbb53cd8e	-0.0032318565
95	0x3e58e3aa	0.21180597
96	0x3e5f6a30	0.21817851
97	0x3e60c1f0	0.21948981
98	0x3e8e66e6	0.2781288
99	0x3d3d0cb1	0.04615468
100	0x3e17c3ed	0.14820834
101	0x3db8e290	0.09027588
102	0x3f024377	0.50884193
103	0x3dd07147	0.10177856
104	0x3da9aed6	0.082853004
105	0xbe73d02e	-0.23809883
106	0xbe78d0b1	-0.2429836
107	0x3ecf7943	0.40522203
108	0xbddb26df	-0.107007734
109	0xbdafa437	-0.08576243
110	0x3d21cef0	0.03950399
111	0x3e5621f1	0.20911385
112	0x3e9a2a36	0.3011033
113	0x3e451d01	0.19249345
114	0xbdb8d8e4	-0.090257436
115	0xbbf5299d	-0.0074817673
116	0x3c5a687c	0.013330575
117	0x3d643d41	0.05572248
118	0x3df5750a	0.11985214
119	0xbe5f966e	-0.21834728
120	0x3db478dd	0.08812115
121	0x3e2d67ea	0.16934171
122	0x3e060582	0.13088039
123	0x3e13a122	0.14416936
124	0x3e079176	0.13239083
125	0xbe9535e3	-0.29142675
126	0xbe4d26e6	-0.2003437
127	0x3d2f71fa	0.042833306
128	0x3dff73f4	0.12473288
129	0xbe54b393	-0.20771627
130	0x3ea0391b	0.31293568
131	0xbdb6c21f	-0.089237444
132	0xbd70c814	-0.05878456
133	0x3e8a493e	0.27009004
134	0x3cec6b97	0.028859897
135	0xbde523f6	-0.111885
136	0x3eca5ce1	0.39523986
137	0x3e492948	0.19644654
138	0x3ebe79cb	0.37202296
139	0x3be909ed	0.007111779
140	0x3ef9172f	0.486505
141	0xbe5d5ea5	-0.21618135
142	0xbca9ce88	-0.020728365
143	0xbebb969a	-0.36638337
144	0x3d5c3f88	0.053771526
145	0x3d27ba08	0.040948898
146	0xbe30abc3	-0.17253022
147	0xbe3a3668	-0.18184817
148	0xbd920107	-0.07129102
149	0xbde83728	-0.11338645
150	0x3c329820	0.010900527
151	0xbc9e5300	-0.019326687
152	0x3c5c2840	0.013437331
153	0x3c0a1446	0.008427685
154	0x3e84bebc	0.2592677
155	0xbe1b0275	-0.15137656
156	0x3ce23ff3	0.027618384
157	0xbc4fbf46	-0.0126798805
158	0x3e10b78f	0.14132522
159	0xbe0103c1	-0.12599088
160	0xbda2492a	-0.07924111
161	0x3e003a02	0.12522128
162	0x3d523b60	0.051326156
163	0x3dad3c99	0.08458824
164	0xbd5c2d0c	-0.053753898
165	0x3e95c0dc	0.29248703
166	0xbe1e523a	-0.15461054
167	0x3d4a1720	0.04933846
168	0x3e3aa091	0.18225314
169	0x3e806940	0.250803
170	0x3e85b68f	0.26115844
171	0xbe1ea13f	-0.15491198
172	0xbe11d45a	-0.14241162
173	0x3e338f5e	0.17535159
174	0x3e8ce6f6	0.2751996
175	0xbdfb795e	-0.12279008
176	0xbbf0b0d5	-0.007345299
177	0xbd9fc6b4	-0.078015715
178	0xbdd21a49	-0.1025892
179	0x3e774098	0.24145734
180	0xbe007c61	-0.12547447
181	0xbe016552	-0.12636307
182	0x3e1a8142	0.1508837
183	0xbe9395ae	-0.28825134
184	0xbe8f93a1	-0.2804232
185	0x3db05495	0.08609883
186	0x3d99cb1c	0.07509443
187	0x3e6cbb40	0.23118305
188	0x3da675d8	0.08127946
189	0x3e8f52a8	0.2799275
190	0xbd820b7e	-0.06349848
191	0xbd239054	-0.039932564
192	0xbe5be4cc	-0.21473998
193	0xbea5ae51	-0.32359555
194	0xbe4a79dc	-0.19773048
195	0xbe9278b5	-0.28607717
196	0xbe8b6b28	-0.2723019
197	0xbe91b5db	-0.28459057
198	0xbe86b946	-0.26313227
199	0xbd781c89	-0.06057409
200	0xbe058dc3	-0.13042359
201	0x3d90f4f0	0.07077968
202	0x3ea376d6	0.31926602
203	0x3e1e6942	0.1546984
204	0xbd9a21ea	-0.07526
205	0xbdad1dd1	-0.08452953
206	0x3e1e4877	0.1545733
207	0x3dc573a2	0.09641196
208	0xbaddb383	-0.001691446
209	0xbe8f915a	-0.28040582
210	0x3c4fc174	0.0126804
211	0x3b945fb3	0.00452801
212	0x3cd72b62	0.026265804
213	0xbdc50420	-0.096199274
214	0xbd229e3d	-0.03970169
215	0x3eac7bd6	0.3368823
216	0x3dd57f73	0.104247
217	0x3e613406	0.21992502
218	0x3d83edbc	0.064418286
219	0xbc6f1e42	-0.014594616
220	0xbd21fef3	-0.03954978
221	0x3f043f4a	0.5165907
222	0xbc9e16f0	-0.019298047
223	0xbd9dcc9f	-0.07705044
224	0xbf13eaf6	-0.57780397
225	0xbec77389	-0.38955334
226	0xbe784cc9	-0.24248041
227	0xbd08a0b0	-0.03335637
228	0xbf06faf8	-0.527267
229	0xbf834203	-1.025452
230	0x3e83dabc	0.2575282
231	0xbe886065	-0.26636043
232	0xbed51333	-0.4161621
233	0x3dc8e57d	0.098093964
234	0xbc9aaec0	-0.018882155
235	0x3e6237ae	0.22091553
236	0xbdb233e8	-0.087013066
237	0xbe834ba7	-0.25643656
238	0xbf2cf53b	-0.6756169
239	0xbd7d55ad	-0.061849285
240	0xbd911c8d	-0.07085524
241	0x3ef6416b	0.48096785
242	0x3e9350bb	0.2877253
243	0xbf04f42b	-0.5193507
244	0xbe7de2d2	-0.24793556
245	0xbe334f4c	-0.17510718
246	0xc10618e1	-8.381074
247	0x3e02715e	0.12738559
248	0xbf1a58c2	-0.60291684
249	0xbe48a5d8	-0.19594514
250	0xbebc0660	-0.36723614
251	0x3e352c23	0.17692618
252	0xbdd29774	-0.10282794
253	0x3c0df540	0.008664429
254	0x3e4f77fc	0.20260614
255	0xbd905b52	-0.07048668

StatefulPartitionedCall/sequential_2/dense_7/BiasAdd/ReadVariableOp:0 f4 [36]
0	0xbd644974	-0.055734113
1	0xbd014e26	-0.03156867
2	0x00000000	0.0
3	0xbd9a16b7	-0.07523864
4	0x3f2e7fbe	0.6816367
5	0xbee2532c	-0.4420408
6	0x00000000	0.0
7	0xbd01c7ff	-0.03168487
8	0x3f518598	0.8184447
9	0x3fbe0ced	1.4847695
10	0xbd7cca8f	-0.061716612
11	0x00000000	0.0
12	0x40123279	2.2843306
13	0xbed7d549	-0.4215491
14	0xbef5314a	-0.47889167
15	0xbd1852c3	-0.037188303
16	0x400dca13	2.2154586
17	0xbcfcf07f	-0.030876396
18	0x00000000	0.0
19	0xbd2d9024	-0.04237379
20	0x00000000	0.0
21	0x3f281c1e	0.65667903
22	0x3f9c2608	1.2199106
23	0xbc3f4ea5	-0.011676465
24	0xbfb1c9ef	-1.388975
25	0x3cd250c4	0.025673278
26	0xbee65be3	-0.4499198
27	0x3f3f034b	0.746144
28	0xbe68196f	-0.22665952
29	0x00000000	0.0
30	0xbe18aa35	-0.14908679
31	0xbc635ff4	-0.0138778575
32	0x3f75edfd	0.96066266
33	0x00000000	0.0
34	0x3fe4d2f1	1.7876874
35	0xbe45d81c	-0.1932072

StatefulPartitionedCall/sequential_2/dense_6/MatMul/ReadVariableOp:0 f4 [6, 36]
0	0x3f88eb8e	1.0696886
1	0xbf87b2e4	-1.0601468
2	0xbeb7fc31	-0.35934594
3	0x3f4f65f2	0.8101493
4	0x3ea47905	0.3212358
5	0xbee37b34	-0.44429934
6	0xbe4ea31e	-0.20179412
7	0xbd6ec378	-0.058291882
8	0xbd5a1830	-0.053245723
9	0x3e3bef00	0.1835289
10	0x3d7d1570	0.061788023
11	0xbe1d426a	-0.15357366
12	0xbd6d8fd0	-0.05799848
13	0x3eb80043	0.359377
14	0xbeb16763	-0.3464919
15	0xbeb27e5e	-0.34862036
16	0xbec6a5ef	-0.38798472
17	0x3d85f215	0.06540314
18	0xbe0afafa	-0.13572302
19	0x3ede9e68	0.4348023
20	0x3e87a539	0.26493242
21	0xbe61d2d9	-0.22053088
22	0xbd98ef74	-0.07467547
23	0xbc9164bb	-0.017748227
24	0x3ea5f0a2	0.3241015
25	0xbeab9be2	-0.33517367
26	0xbd4f707a	-0.050644375
27	0x3dfda594	0.12385097
28	0x3de6a19e	0.11261295
29	0x3dad75ac	0.0846971
30	0x3e7b41c8	0.24536812
31	0xbe3aaa89	-0.18229116
32	0x3e261c9e	0.16221854
33	0xbe9bb5a2	-0.30412012
34	0xbf51e8e9	-0.8199602
35	0xbe5d184c	-0.215913
36	0xbf319866	-0.69373167
37	0xbef947f0	-0.48687696
38	0x3f3cc970	0.7374487
39	0x3ecb7ae1	0.39742187
40	0x3ea6318e	0.32459682
41	0xbea53c0d	-0.32272378
42	0x3fef180d	1.8679215
43	0xbe32affa	-0.17449942
44	0xbf1d473d	-0.61436826
45	0x3de77020	0.11300683
46	0xbe681491	-0.22664095
47	0xbdbe9414	-0.093055874
48	0xbe725d89	-0.23668493
49	0xbebce165	-0.36890712
50	0x3e5c3de5	0.21507986
51	0x3f34ebfe	0.70672596
52	0xbe60466b	-0.21901862
53	0x3e435376	0.19074807
54	0x3ee707bd	0.4512309
55	0x3e6fc587	0.23415194
56	0xbc2de680	-0.0106140375
57	0x3eaba127	0.33521387
58	0x3e5a65f6	0.21327958
59	0x3f124de3	0.57150096
60	0x3f58e5a0	0.8472538
61	0xbd93991c	-0.07206938
62	0xbee7bcc8	-0.45261216
63	0x3e31ef02	0.1737633
64	0x3f400626	0.7500938
65	0xbddf9470	-0.10916984
66	0x3f32e5fa	0.69882166
67	0xbf06f05f	-0.5271053
68	0xbea296bf	-0.31755635
69	0xbebbba8f	-0.3666577
70	0x3f8881b2	1.066458
71	0xbda829ec	-0.08211121
72	0xbddc243f	-0.10749101
73	0xbd4da081	-0.050201897
74	0x3e025ae1	0.1272998
75	0x3e5d840e	0.21632406
76	0x3d3e3e74	0.04644628
77	0x3eb8ec98	0.36118007
78	0xbdc9eff0	-0.098602176
79	0xbe64a48c	-0.22328395
80	0x3eca942d	0.39566174
81	0x3d1a0ced	0.037609983
82	0xbeb1af72	-0.34704167
83	0xbd53a8d0	-0.051674664
84	0xbe557589	-0.20845617
85	0xbe91db04	-0.28487408
86	0x3ecd3613	0.40080318
87	0x3d32f24b	0.0436881
88	0xbe5f97f1	-0.21835305
89	0x3dfb271d	0.1226332
90	0x3e2b7497	0.16743694
91	0x3eb24031	0.348146
92	0xbe528df6	-0.20561966
93	0xbe5bcdc4	-0.21465212
94	0xbe5cf9bb	-0.2157964
95	0xbd028df7	-0.03187367
96	0x3ac62b13	0.0015119038
97	0xbeaa60cb	-0.33276972
98	0xbc805d92	-0.015669618
99	0xbe526df4	-0.20549756
100	0xbe3ae49b	-0.18251269
101	0xbe666bf8	-0.22502124
102	0x3d105bd0	0.03524381
103	0x3e5f8037	0.21826254
104	0x3d281f48	0.041045457
105	0xbd83a6d0	-0.06428301
106	0x3de2c110	0.1107198
107	0xbec02c93	-0.37534007
108	0x3edc9898	0.4308517
109	0xbeee1f7f	-0.46508405
110	0x3d291bc5	0.04128625
111	0x3ef5b972	0.47993046
112	0x3daca51c	0.084299296
113	0xbc2e7d0c	-0.010649931
114	0x3ddd02bb	0.107915364
115	0x3e0ee5e6	0.13954887
116	0xbeb003bd	-0.34377852
117	0xbe10d4ca	-0.14143673
118	0x3e07b3ce	0.13252184
119	0x3eb0a18b	0.34498248
120	0x3df14f5c	0.11782715
121	0xbeb777c4	-0.3583356
122	0x3ee6c51f	0.45072266
123	0x3f17c0f5	0.59278804
124	0x3f0a93e0	0.5413189
125	0x3eb5698d	0.3543209
126	0xbe9e5224	-0.30922043
127	0xbe8f3c79	-0.27975824
128	0xbeaf8eee	-0.34288734
129	0x3d6953a0	0.056964517
130	0xbe7da6a0	-0.24770594
131	0xbc804235	-0.01565657
132	0x3e9b3fd2	0.3032213
133	0x3e9c2a23	0.30500898
134	0x3dbf555d	0.09342454
135	0x3e08a0aa	0.13342538
136	0xbe0caa93	-0.13736944
137	0xbd847158	-0.06466931
138	0xbe63d606	-0.22249612
139	0x3e690b70	0.2275827
140	0x3ea93eb1	0.33055642
141	0x3e8bae27	0.27281305
142	0xbf013622	-0.50473225
143	0x3e3f218e	0.18665144
144	0xbdb15535	-0.0865883
145	0xbf033661	-0.5125485
146	0xbf2a026c	-0.66409945
147	0xbef637b6	-0.4808938
148	0x3e5e0cd3	0.2168458
149	0xbe17ee15	-0.14836915
150	0xbeb6a395	-0.35671678
151	0x3e39f56e	0.1816003
152	0x3f214ae8	0.6300492
153	0xbe1abafc	-0.15110391
154	0x3e5ef396	0.21772608
155	0x3e46754e	0.19380686
156	0x3e841fd3	0.2580553
157	0x3e764c56	0.24052557
158	0x3c079be6	0.008276915
159	0xbf515ec3	-0.8178522
160	0x3f478e6b	0.7795169
161	0xbd0fadf6	-0.03507801
162	0xbda0f880	-0.078598976
163	0x3efb349b	0.49063572
164	0xbebc71bb	-0.3680552
165	0xbde5183c	-0.11186263
166	0x3d79dea0	0.061003327
167	0xbf28bedc	-0.6591623
168	0xbcabc966	-0.020970058
169	0xbdf4fb68	-0.119620144
170	0x3ee60569	0.44926003
171	0xbea5f5f5	-0.32414213
172	0xbee2771f	-0.44231507
173	0x3e8c87d1	0.2744737
174	0xbf8f5783	-1.1198581
175	0xbe856f6f	-0.2606158
176	0x3e9282e1	0.28615478
177	0xbe5304e7	-0.20607339
178	0x3e4893d2	0.19587639
179	0xbea8255c	-0.32841003
180	0x3ead0802	0.33795172
181	0x3ea0cd49	0.3140662
182	0xbd8a8d18	-0.06765193
183	0x3d8cf7f6	0.06883232
184	0xbe9f9697	-0.31169578
185	0xbde44910	-0.11146748
186	0x3e9f5581	0.31119922
187	0xbc7cf020	-0.01543811
188	0xbe9ba9a0	-0.3040285
189	0xbd845f94	-0.064635426
190	0xbe1ce000	-0.15319824
191	0xbe43d1ce	-0.19123003
192	0xba4e7c00	-0.0007876754
193	0xbe7d5ba6	-0.24741992
194	0xbea75db9	-0.32688692
195	0x3d38ae7b	0.045088273
196	0x3ec04941	0.37555888
197	0x3e8113e3	0.25210485
198	0x3e9d59e4	0.30732644
199	0x3c474f5e	0.012164919
200	0xbbe42f40	-0.0069636405
201	0xbe001ee2	-0.12511781
202	0xbe09bdbf	-0.13451289
203	0x3d41369e	0.047171228
204	0x3e4c14a5	0.1992975
205	0x3e0b771e	0.13619658
206	0x3ca70791	0.02038935
207	0x3cf21520	0.029551089
208	0x3e89183d	0.26776305
209	0x3cb9e6a0	0.022692978
210	0x3dd17209	0.102268286
211	0x3cc28755	0.023746172
212	0xbe2ef2ce	-0.1708481
213	0xbe0c64ed	-0.13710375
214	0x3e58eced	0.2118413
215	0xbe83d52e	-0.2574858

StatefulPartitionedCall/sequential_2/dense_6/BiasAdd/ReadVariableOp:0 f4 [36]
0	0x3e335618	0.17513311
1	0x3edfa920	0.4368372
2	0x3f300531	0.6875792
3	0x3f597e83	0.84958667
4	0xbc7dbf78	-0.015487544
5	0x3e9901a9	0.2988408
6	0xbf9ce8ee	-1.2258584
7	0x00000000	0.0
8	0xbf7e4c1b	-0.9933488
9	0xbd3e7447	-0.04649761
10	0x00000000	0.0
11	0x00000000	0.0
12	0x00000000	0.0
13	0x00000000	0.0
14	0xbf28dbeb	-0.6596057
15	0x3f3d523e	0.73953617
16	0x3fa9b148	1.3257227
17	0x3f86aec3	1.0522083
18	0x3f891266	1.070874
19	0x3f5334f6	0.82502687
20	0x00000000	0.0
21	0x00000000	0.0
22	0x00000000	0.0
23	0x3f21fc7a	0.63275874
24	0x3f9f19c3	1.2429737
25	0x00000000	0.0
26	0xbf9a6913	-1.2063316
27	0x00000000	0.0
28	0x3fb261a8	1.3936052
29	0x00000000	0.0
30	0x3f8dd6d0	1.108118
31	0x3f746d5e	0.9547938
32	0x00000000	0.0
33	0x00000000	0.0
34	0x3fb06b51	1.378275
35	0x00000000	0.0
